…
art setting `weights_only=True` for any use case where you don't have full control of the loaded file. Please open an issue on GitHub for any issues related to this experimental feature.
  ckpt = torch.load(os.path.join(cfg.CKPT_DIR ,'{}/{}.pth'.format(cfg.CORRUPTION.DATASET, cfg.MODEL.ARCH)))
[25/05/18 16:07:34] [main.py:   57]: test-time adaptation: NONE
[25/05/18 16:07:34] [setada.py:   19]: model for evaluation: VisionTransformer(
  (vit): ViTForImageClassification(
    (vit): ViTModel(
      (embeddings): ViTEmbeddings(
        (patch_embeddings): ViTPatchEmbeddings(
          (projection): Conv2d(3, 768, kernel_size=(16, 16), stride=(16, 16))
        )
        (dropout): Dropout(p=0.0, inplace=False)
      )
      (encoder): ViTEncoder(
        (layer): ModuleList(
          (0-11): 12 x ViTLayer(
            (attention): ViTAttention(
              (attention): ViTSelfAttention(
                (query): Linear(in_features=768, out_features=768, bias=True)
                (key): Linear(in_features=768, out_features=768, bias=True)
                (value): Linear(in_features=768, out_features=768, bias=True)
                (dropout): Dropout(p=0.0, inplace=False)
              )
              (output): ViTSelfOutput(
                (dense): Linear(in_features=768, out_features=768, bias=True)
                (dropout): Dropout(p=0.0, inplace=False)
              )
            )
            (intermediate): ViTIntermediate(
              (dense): Linear(in_features=768, out_features=3072, bias=True)
              (intermediate_act_fn): GELUActivation()
            )
            (output): ViTOutput(
              (dense): Linear(in_features=3072, out_features=768, bias=True)
              (dropout): Dropout(p=0.0, inplace=False)
            )
            (layernorm_before): LayerNorm((768,), eps=1e-12, elementwise_affine=True)
            (layernorm_after): LayerNorm((768,), eps=1e-12, elementwise_affine=True)
          )
        )
      )
      (layernorm): LayerNorm((768,), eps=1e-12, elementwise_affine=True)
    )
    (classifier): Linear(in_features=768, out_features=100, bias=True)
  )
)
[25/05/18 16:07:34] [eval.py:   74]: not resetting model
Starting download from https://zenodo.org/api/records/3555552/files/CIFAR-100-C.tar/content
  0%|          | 0/44532 [00:00<?, ?it/s]  0%|          | 10/44532 [00:00<07:25, 99.95it/s]  0%|          | 26/44532 [00:00<05:32, 133.88it/s]  0%|          | 42/44532 [00:00<05:06, 145.17it/s] 
…
